Python/src/Handin 1/paramsSoftmax.npz (npz, 62916 bytes, 1 tensors)

theta f8 [784, 10]
0.0 0.0 0.0 0.0 0.0 0.0 0.0 0.0
0.0 0.0 0.0 0.0 0.0 0.0 0.0 0.0
0.0 0.0 0.0 0.0 -9.419837592221746e-06 -7.224032400317934e-06 8.488290329371261e-06 4.82219996696726e-07
-7.327080609521328e-07 -5.03473955800308e-06 -6.521329107436543e-06 3.5599608354993134e-05 -1.1003289969652049e-05 -4.634181992477641e-06 -7.002162268864189e-05 -2.7766099957576953e-05
1.0757142130888485e-05 6.784931238524509e-05 7.985405477022375e-05 -2.8846056116973225e-05 -2.9133169936911846e-05 6.118567892259203e-05 -4.244231330782951e-05 -2.1436926201015964e-05
-0.0001501173378488238 -8.011646303213685e-05 2.865765735463917e-05 0.000250566369305943 0.0001593135087628521 -8.2033032189541e-05 -6.46083160679337e-05 6.83867973857459e-05
-6.89025947619287e-05 -6.114658890881603e-05 -0.00021613025712283876 -0.00021489515022309576 0.00017639099814387513 0.0007936586614121213 0.00021774236839430347 -0.00022934586326396242
-9.401219371579408e-05 1.3541813478500164e-05 -0.0002734993301508281 -0.00017345104695228072 -0.0004951413953238591 -0.0005508956743302983 0.0008723369953515846 0.0021945831071328503
0.0002984132238171529 -0.0005102426349832206 -0.00018080974701449603 -0.00030209744223581245 -0.0009046583660306615 -0.0004214880663832396 -0.0009223434860844302 -0.0011604277304880755
0.001881577492397626 0.004977275195143063 0.00020468145668984343 -0.0008914809494344516 -0.00045345585859142437 -0.0009579469502604582 -0.0018702977739114114 -0.0008075813954602796
-0.0008974723272377831 -0.002269703532265316 0.00399716614804893 0.0090222186038202 -0.0004414492884025295 -0.0015591070496864825 -0.0012682030966900248 -0.002049473682358863
-0.0031355010688167585 -0.0013984747064113747 -0.0004667172241147107 -0.0036851852644752673 0.007742116525776826 0.01275340019262725 -0.0010890061888107457 -0.0024638735000599076
-0.0025800999069618114 -0.0037140335362555207 -0.004024798728528123 -0.0024718023691979864 0.000885219639089063 -0.00492331331007839 0.01441250043158423 0.013876074389779251
-0.002624925804911351 -0.0034934295038471152 -0.003720966339411935 -0.005982931304388842 -0.004297896872449741 -0.004130331325365166 0.0038606231435014153 -0.005858719422687564
0.021924028508625848 0.012612137798579797 -0.005318721650783382 -0.006120198294882744 -0.004300129280539446 -0.008673107908537711 -0.002215461731924986 -0.005910451161351219
0.00810258177626781 -0.00486015601147493 0.029662502285438378 0.008150173168781225 -0.007600003846883128 -0.009903476756941048 -0.003110431059181529 -0.012396329540406292
0.0007527183221287411 -0.008797578337729227 0.011823056500168159 -0.000758858425699319 0.03381608298398731 0.0022232100975445976 -0.010429922966187215 -0.014623313880421401
0.002599633775734404 -0.016472302972632656 0.004733659793005337 -0.01291124490549922 0.014694089383435742 0.005706341496028802 0.0325205448013274 -0.004149827805169815
-0.013796031043414559 -0.019535919993978284 0.013639718067804053 -0.01979659571018733 0.007408570908012042 -0.016690890103858033 0.015350782947069822 0.009251660899734598
0.026239666651742682 -0.010441997626881161 -0.01527147915346837 -0.02227284516947198 0.027208890530072038 -0.02118145536626617 0.00974257362715051 -0.01862579733968197
0.013666751845611943 0.0061317354027661496 0.018887489264234777 -0.015566746871102103 -0.014528061888206937 -0.02018459043549898 0.03832294467893261 -0.019767704756920062
0.010968972060209435 -0.01793078930002682 0.009971739191022825 -0.0010424828396060231 0.012423665189531715 -0.01626749013271257 -0.012426375626939832 -0.01449645363324023
0.04261024147772306 -0.016056615809462625 0.01011964404525784 -0.01483587186157416 0.004991311759280086 -0.004923468233878616 0.00629827850183929 -0.013541876096367157
-0.009154981224351922 -0.008014183932067117 0.03841987806813807 -0.011606744375739901 0.00884233217145063 -0.011310546638303356 0.000676035990566335 -0.0053543967980627695
0.002243266494243734 -0.00999892239473608 -0.005883306243819132 -0.0020169727552339905 0.029354603235835608 -0.007541727553937577 0.006279026986202447 -0.007757606961058578
-0.001696910605373655 -0.00430046162707465 -0.0007295047480449134 -0.0069917236044366275 -0.0038724601364570894 0.0024210587192517057 0.0211248686677352 -0.004701736437465563
0.0038094989757101534 -0.0050626292038445575 -0.002765494032659764 -0.0029901222311563805 -0.001529401063078481 -0.0045688439458797065 -0.0024356832525637907 0.0041281226097936745
0.014336612461003772 -0.0029241536809516996 0.0020023230495825307 -0.0032533599140901555 -0.0026785435089236773 -0.0017864032619460991 -0.0016226325696608952 -0.0027379297975570873
-0.0015115005181808104 0.0038724582933223214 0.009316752893381951 -0.0016637489300360873 0.0007583654035911578 -0.0019468180039907729 -0.0019535648212702502 -0.0010128167797919276
-0.0011161913316655866 -0.0015322629746648303 -0.0009110338017548647 0.00248547179801457 0.005826937286066303 -0.0008812942078305227 0.00018183194445087935 -0.0010870771115537722
-0.0012204376186753332 -0.0005379463976738845 -0.0007353225495057097 -0.0008738980736122213 -0.00045293172773728184 0.00160953368931076 0.003388753963551985 -0.0004795665743812756
-8.546534180680092e-05 -0.0006127193694702381 -0.0007751747335784749 -0.0002803724002302087 -0.00038828661358325674 -0.00045261349185802185 -0.0002175977129651919 0.0008774451403804527
00000000: 0000 0000 0000 0000 0000 0000 0000 0000
00000010: 0000 0000 0000 0000 0000 0000 0000 0000
00000020: 0000 0000 0000 0000 0000 0000 0000 0000
00000030: 0000 0000 0000 0000 0000 0000 0000 0000
00000040: 0000 0000 0000 0000 0000 0000 0000 0000
00000050: 0000 0000 0000 0000 0000 0000 0000 0000
00000060: 0000 0000 0000 0000 0000 0000 0000 0000
00000070: 0000 0000 0000 0000 0000 0000 0000 0000
00000080: 0000 0000 0000 0000 0000 0000 0000 0000
00000090: 0000 0000 0000 0000 0000 0000 0000 0000
000000a0: de70 dc9e 3cc1 e3be a9bc e8e7 be4c debe
000000b0: edbc 58bd 1dcd e13e 24e3 adfc 3c2e a03e
000000c0: f2cf c810 ea95 a8be 1752 f5ab 021e d5be
000000d0: aad8 a84b 395a dbbe 950a a53a 19aa 023f
000000e0: 5659 7ea8 5813 e7be 1df5 193f ea6f d3be
000000f0: 7c1c 5e51 125b 12bf bb79 2edc 671d fdbe
00000100: 507b 585b 328f e63e 30e2 9d4f 4ac9 113f
00000110: fccc fa36 eaee 143f 5082 dbe1 4d3f febe
00000120: 5eff 9731 608c febe 900c b7f5 190a 103f
00000130: 00f1 eec7 8240 06bf 44dd f259 6e7a f6be
00000140: 0aba fd1c 1aad 23bf 8371 b85a 8600 15bf
00000150: 11aa c737 bb0c fe3e 2bdd 945c ce6b 303f
00000160: f16e b19e ace1 243f e138 04c3 2481 15bf
00000170: 3625 126b caef 10bf 70e0 a53b 5ced 113f
00000180: acab 7f90 f90f 12bf 212e 0466 7a07 10bf
00000190: ff3c a4c5 2054 2cbf bf8e d848 af2a 2cbf
000001a0: 8208 fd22 b31e 273f f897 5aff b001 4a3f
000001b0: 576b d1b3 388a 2c3f 78d1 e1f6 910f 2ebf
000001c0: ebae 9230 0da5 18bf 6163 2fac 3466 ec3e
000001d0: 9895 b0ad 8eec 31bf 0baa f225 0dbc 26bf
000001e0: eaa1 c60c 8c39 40bf 990f cf73 3f0d 42bf
000001f0: 2837 dd6e b195 4c3f 2e3a 8dd5 5ffa 613f
00000200: bb15 7809 8b8e 333f c757 13b7 39b8 40bf
00000210: 04ee 83e6 f7b2 27bf 8fac 75a2 5acc 33bf
00000220: 50ca 4e0c d3a4 4dbf b30a f575 659f 3bbf
00000230: 8e6b e08d 2d39 4ebf f361 b7c9 2f03 53bf
00000240: a5fa dc72 e8d3 5e3f b636 fb22 0d63 743f
00000250: efc0 3d53 f8d3 2a3f 2307 ecc2 4836 4dbf
00000260: ea54 3415 bab7 3dbf 9f4d 4d69 d763 4fbf
00000270: 346d 74f1 98a4 5ebf 1592 57d7 7b76 4abf
00000280: 4bdb b325 8b68 4dbf 278f 2ace e997 62bf
00000290: 1feb 1e1e 555f 703f e8e5 b9ae 3d7a 823f
000002a0: a409 ac41 4aee 3cbf 06fb 8472 5e8b 59bf
000002b0: 384d ccb4 3ac7 54bf 0762 12ce 0eca 60bf
000002c0: e42d 8251 9faf 69bf 5365 36c8 a0e9 56bf
000002d0: 7426 cc36 3796 3ebf 1d94 19c6 6430 6ebf
000002e0: 7903 7b94 32b6 7f3f 73cb eb65 741e 8a3f
000002f0: f450 d47d 9fd7 51bf aeeb 5503 1e2f 64bf
00000300: bbe7 1097 dc22 65bf c703 6292 e46c 6ebf
00000310: 8098 97ae 4e7c 70bf 1feb cfca be3f 64bf
00000320: 6534 28b3 c201 4d3f 3ed9 79da 772a 74bf
00000330: edd3 0e10 4d84 8d3f 8f93 9b2d 0f6b 8c3f
00000340: eb93 914f de80 65bf ee75 09af 409e 6cbf
00000350: 7fe3 9797 6e7b 6ebf ddc4 95e4 8e81 78bf
00000360: 79d9 23e8 ab9a 71bf 40e7 6c5f f7ea 70bf
00000370: c6b5 9744 50a0 6f3f 00f4 1105 50ff 77bf
00000380: e0b4 c3a5 4073 963f a936 057b 64d4 893f
00000390: 6e0b bf78 15c9 75bf 794b 5838 7e11 79bf
000003a0: 684a 0e2a 039d 71bf 4525 93d6 34c3 81bf
000003b0: ec9d e4f5 2826 62bf ddec 14a7 8e35 78bf
000003c0: 5719 f01d 1698 803f f9c0 f631 3ee8 73bf
000003d0: 3116 efd4 d85f 9e3f 12b4 bbb9 09b1 803f
000003e0: 31a5 8c7f 2e21 7fbf 0954 4d26 4648 84bf
000003f0: 1ae7 9ef5 0b7b 69bf d35b bb2f 3f63 89bf
00000400: 8c6f cf49 42aa 483f 0cd4 f4f9 7604 82bf
00000410: d24c 0ec8 af36 883f 5033 720f c4dd 48bf
00000420: e176 fd74 5750 a13f 59a8 27d5 6836 623f
00000430: dc0b 5190 485c 85bf d021 01f7 d3f2 8dbf
00000440: 6f22 8cc1 d34b 653f 96a2 3a8a 1dde 90bf
00000450: 8985 0520 9a63 733f c047 f5f4 3571 8abf
00000460: fc56 c54a ef17 8e3f 1d1c af61 885f 773f
00000470: f356 bd68 88a6 a03f 81d6 50eb 68ff 70bf
00000480: cd24 2bf1 1741 8cbf 1bb9 e265 3901 94bf
00000490: 7a18 39f8 23ef 8b3f 01ed 960c 8f45 94bf
000004a0: eefe 281c 7358 7e3f 3c7e 8cac 6a17 91bf
000004b0: 8226 ce35 3b70 8f3f 76fd fbe7 88f2 823f
000004c0: 983a 8238 92de 9a3f cdb8 7f32 9d62 85bf
000004d0: 399e 343c a746 8fbf b1f4 5d56 b1ce 96bf
000004e0: 43cb f2bb a5dc 9b3f 47b6 5168 97b0 95bf
000004f0: 5420 dc18 eaf3 833f 8651 be19 a412 93bf
00000500: 7e6f c161 50fd 8b3f 1c98 5c30 971d 793f
00000510: ff14 c6f2 3d57 933f 2261 bb65 75e1 8fbf
00000520: 2210 7975 e3c0 8dbf d2e8 36ef 44ab 94bf
00000530: a134 2aa4 109f a33f cbb4 ca35 fc3d 94bf
00000540: 4c9a 2782 e676 863f ea52 8ae6 725c 92bf
00000550: 156f ad2d 106c 843f 4ad7 f96c 7d14 51bf
00000560: 6be3 7b1d 9471 893f 6398 6ec8 6ca8 90bf
00000570: 0576 67e7 ff72 89bf 301b 1a12 51b0 8dbf
00000580: 0e33 3e73 02d1 a53f c6f1 243f 2571 90bf
00000590: a2b8 c5a1 9bb9 843f e8f6 9f03 4562 8ebf
000005a0: c5ef 520c c571 743f 362a c270 a12a 74bf
000005b0: 08e7 fb42 39cc 793f 47dc aed7 d7bb 8bbf
000005c0: 9af7 a1c7 d8bf 82bf 0b8c 238f bd69 80bf
000005d0: d04e a32f c5ab a33f 69ff 0ddc 46c5 87bf
000005e0: 9a57 f9bb ed1b 823f ce89 4adf fb29 87bf
000005f0: b91c 363c 0027 463f 4425 33f2 7dee 75bf
00000600: 99e1 5387 7860 623f f5ef 71a5 507a 84bf
00000610: 5b8a 8dfe 1719 78bf 7c30 a900 e685 60bf
00000620: 8035 8a13 220f 9e3f 132b 3113 13e4 7ebf
00000630: a12e e778 09b8 793f 2e66 16c3 70c6 7fbf
00000640: 57e7 79e3 5bcd 5bbf 835e bc60 5c9d 71bf
00000650: a320 7f84 87e7 47bf 4c62 9483 5aa3 7cbf
00000660: 7f46 8434 23b9 6fbf 2510 ab00 54d5 633f
00000670: baa9 3df0 c1a1 953f 31b4 bbc3 2042 73bf
00000680: 1169 7930 1935 6f3f 57ed cb2d 8dbc 74bf
00000690: b08b ae4d a9a7 66bf 3918 34a6 bd7e 68bf
000006a0: 26d1 18e3 c50e 59bf cbd1 3fb5 c7b6 72bf
000006b0: b1bd 387d fff3 63bf 83a6 a579 a6e8 703f
000006c0: e655 3e8d 835c 8d3f 4788 b30d 65f4 67bf
000006d0: 7b8e 7200 2d67 603f 113d dc4d caa6 6abf
000006e0: ab18 b218 50f1 65bf 9007 9ae5 b744 5dbf
000006f0: 27d0 7c74 d095 5abf 5a59 0ede da6d 66bf
00000700: a345 c852 b1c3 58bf 63bc 3237 22b9 6f3f
00000710: f91c db67 a914 833f 5692 91cf 4442 5bbf
00000720: 83fe ac4d a1d9 483f 124c 23ea 8be5 5fbf
00000730: 9e39 9320 ec00 60bf 0b06 8cbc 0f98 50bf
00000740: 414d ff50 a549 52bf 8d18 5dd7 c61a 59bf
00000750: 14c9 2931 4eda 4dbf 97a4 cd82 695c 643f
00000760: 749f 4591 fcdd 773f 8c2a 80e6 d4e0 4cbf
00000770: 0e21 7382 44d5 273f 4152 1c29 88cf 51bf
00000780: aa5c 2dea e2fe 53bf 416b ae17 9fa0 41bf
00000790: 4c78 ac26 5518 48bf 5abe b6d2 c9a2 4cbf
000007a0: 5c5e 3cf5 eeae 3dbf cb70 aca3 df5e 5a3f
000007b0: 061e 536e bbc2 6b3f bb2d d3c0 ca6d 3fbf
000007c0: d88c 5a64 7b67 16bf cce6 a5d3 dc13 44bf
000007d0: 5858 9010 a366 49bf d51b 294a de5f 32bf
000007e0: 1c68 8b4e 5e72 39bf 57aa 2f25 98a9 3dbf
000007f0: bb56 2a1f 5e85 2cbf adbb 4a17 8bc0 4c3f
