Python/src/Handin 1/params.npz (npz, 6468 bytes, 1 tensors)

theta f8 [784, 1]
0	0x0000000000000000	0.0
1	0x0000000000000000	0.0
2	0x3fd25154815397fb	0.28621399526161867
3	0x3fe2823374f44dbd	0.5783936771644488
4	0x3fe6a3c271d1046a	0.7074901793458939
5	0x3fe79d587963ed66	0.737957226839552
6	0xbfba62b7e9309532	-0.10306882327184466
7	0xbffd0c537a1fa1f0	-1.8155092974139926
8	0xc0126f599e52f1d7	-4.6087403047681255
9	0xc021fb3a3b47d7e3	-8.990678646583495
10	0xc02f345e7ef8a348	-15.60228344712381
11	0xc036da8de2afc50a	-22.8537275008321
12	0xc03f237064117ed1	-31.138433698912937
13	0xc042c9315472d377	-37.571817928378486
14	0xc043f47bb86f78d7	-39.91002564852686
15	0xc0425904e006ee87	-36.695461276421206
16	0xc03e0ced6237248c	-30.050497187101925
17	0xc036a0a5068bab8b	-22.627518090342658
18	0xc02cd054919a70d4	-14.406895208456639
19	0xc0201278c010f2cc	-8.036077501362705
20	0xc00df30f7d6e59d1	-3.743681888513699
21	0xbffbbd190e358fcc	-1.7336664729163997
22	0xbfdadc816e547fbc	-0.41970859312459274
23	0xbfb68899e3828223	-0.0880218677944034
24	0xbf71128d3fa10e26	-0.004168082954552987
25	0x0000000000000000	0.0
26	0x0000000000000000	0.0
27	0x0000000000000000	0.0
28	0xbf751a0e24d079a0	-0.0051518013470101265
29	0xbfa16910feeb86f6	-0.03400471793953656
30	0x3fe701ae0bae6aed	0.7189550617361796
31	0x3ff9ce201316c1f2	1.6128235574398073
32	0x3ff8b301328a8b15	1.5437023138299015
33	0x3f581ba539c19c00	0.0014714349299767004
34	0xc000f0ce98f714f4	-2.1175815534976383
35	0xc0157d47cef9f04d	-5.372344240193411
36	0xc0250a2a64172a3b	-10.519854667499308
37	0xc0320ef7c8e0d0ff	-18.058468394171538
38	0xc03c506ba7b6b912	-28.314142686948863
39	0xc043a3172bf46bba	-39.27414464411363
40	0xc0484cd4055c811a	-48.60022036568462
41	0xc04c12eabf79385e	-56.1477889387031
42	0xc04d5e7b0a544196	-58.73812989343712
43	0xc04bf1ea96696615	-55.889971543754804
44	0xc047eec85d27a0d6	-47.86548962054228
45	0xc043aa345ffb698a	-39.329723356017965
46	0xc03c9b8db72ff146	-28.607631158070284
47	0xc031362fedb657c3	-17.211668831841745
48	0xc021d1075fd01b24	-8.908259386209075
49	0xc01099386af43d2c	-4.14962927928654
50	0xbffea0fa776d361e	-1.914301363477882
51	0xbfe81502a2b28b47	-0.7525647332844095
52	0x3f8b350f980036de	0.013284799410054612
53	0x3fb4023cf16c58be	0.07815915006753735
54	0x3f7cfbc9a957d72f	0.007076061001034791
55	0x0000000000000000	0.0
56	0xbfac69b3e02ddd3e	-0.05549394713937737
57	0xbf847e3720fb60a2	-0.01000636166956809
58	0x3feb99fc96e044a1	0.8625472018049046
59	0x3ffeea71ba1621f8	1.9322373646738225
60	0x3ff1e574afef3ecc	1.1185194847529827
61	0xbff3ce8e96d2705e	-1.237928952358764
62	0xc009658bffd145c0	-3.1745834336986434
63	0xc020bd5c75530186	-8.369846025831759
64	0xc0303e37297c0174	-16.243029206061195
65	0xc03a2c84b049f2c7	-26.173899667791172
66	0xc0435edb10dc00ed	-38.741060359405175
67	0xc04901381d18c2ef	-50.00952495297485
68	0xc04ccbaade16a9c5	-57.59115196329689
69	0xc04e4620a517233f	-60.5478712428071
70	0xc04e552ca4088cf6	-60.66542482774268
71	0xc04cfa378a0c5612	-57.95481992342333
72	0xc049f8cb7cd5482c	-51.94370994962841
73	0xc0458cab7848c30e	-43.098982844856536
74	0xc040d8a681c10260	-33.69258138584405
75	0xc038f721404ef3f8	-24.965351123119007
76	0xc02d11ffb90aa6e8	-14.535154135275164
77	0xc01bb5f641ed4021	-6.927697210412618
78	0xc009da959f26dd0b	-3.231730693219679
79	0xc00190c468ac2a64	-2.1956871202030914
80	0xbfe2380b98cfcaca	-0.5693414673426898
81	0x3fc01fbe5bbbcfcc	0.1259687374036943
82	0x3f9023912c4604d4	0.01576067764972751
83	0x0000000000000000	0.0
84	0xbfbab27171f2d940	-0.1042853263087169
85	0x3fbbc9c4f293aa2b	0.10854750559125452
86	0x3fe69767e05a3c53	0.705982149303859
87	0x3ffc89b05782a7d4	1.7836154383062324
88	0x3fe5760a4eef2d8d	0.6706592122731522
89	0xbfe537d300562e62	-0.6630644804549315
90	0xbff7a53f9d6b8515	-1.4778438710421302
91	0xc017d6e4a3976790	-5.959856563678741
92	0xc0304e6640f423e2	-16.306247768024953
93	0xc03cdcbd84e11175	-28.862266831348695
94	0xc0434ff0b52c2f2c	-38.62453331620631
95	0xc04651ed51fd8062	-44.64005494001391
96	0xc0482b3add42a9da	-48.337733895826844
97	0xc0496db7ddb05943	-50.85717364416862
98	0xc04a54553a0451de	-52.65885091029098
99	0xc04addde9e335ef9	-53.73335626133298
100	0xc0499b0bbd08f038	-51.211295728077346
101	0xc044eea803e758d1	-41.86450241848218
102	0xc03fa76a9fad73dd	-31.653970699164223
103	0xc038f3254eb30ccd	-24.949788016045932
104	0xc032352d8925caf2	-18.20772607014346
105	0xc026037be29c0dfe	-11.006804544019356
106	0xc01783f0bbe2591d	-5.878848014536087
107	0xc008dd53e696dfd6	-3.1080701842110825
108	0xbff4f2aee3d589e6	-1.309248819329349
109	0xbf5da5c760c80f30	-0.0018095442820830858
110	0x3fa0d82d0e0df5f1	0.03289929195942055
111	0x0000000000000000	0.0
112	0xbfa051ede56ae241	-0.03187507081515096
113	0x3fd4c4c6d8284d0e	0.3245102988159524
114	0x3fef3b3fa10b2529	0.9759824891454275
115	0x3ffd5703425407aa	1.8337433424899054
116	0x400f3240975aca0b	3.8995372604924845
117	0x40186247a7c7981b	6.095976468617688
118	0x4011c4de443451fa	4.442254129117368
119	0xbfda51cbc0b410f2	-0.41124242609681894
120	0xc023fc3633569317	-9.992601017301736
121	0xc03160d6c55b91aa	-17.378277144294465
122	0xc0371ffea40c5146	-23.124979260451504
123	0xc03d339fa39c2bf5	-29.201654649379595
124	0xc0403667f8f60606	-32.42504798901432
125	0xc040acbcba40e23e	-33.34950950782921
126	0xc040bc84cc4d25d6	-33.47280267493231
127	0xc040f4e0ef6b9d48	-33.91311447863205
128	0xc03f8de37055ed24	-31.554251690843685
129	0xc0384ec8b3372adc	-24.30774993988858
130	0xc0303b5875850320	-16.231818528150256
131	0xc0266c8369873d77	-11.211940095671464
132	0xc02674a4febd3d53	-11.227821312523394
133	0xc022fc56b542df4b	-9.492849029934993
134	0xc01a24a462b47d81	-6.535783331171275
135	0xc00cb850a5375d94	-3.5899975688477728
136	0xbff71688509d3c86	-1.4430010937683462
137	0xbfd16203fa184863	-0.2716073934872211
138	0x3fbd896dd6fc62e6	0.11537825106314478
139	0x3fabb97bc2010d16	0.054149501258985364
140	0x3fc311d7dc8f70b9	0.14898203153177805
141	0x3ff566beac1d9bc7	1.337584183050909
142	0x400c8c7013b1ed13	3.5685731447862366
143	0x40174ef972ff8460	5.827123448224569
144	0x401da9a5a55fcb9c	7.415670951816448
145	0x40215c60176e04a0	8.680420620136204
146	0x402057b2ae507a76	8.171285102199572
147	0x4012504cf85943f4	4.578418617676096
148	0x3fe961472193c993	0.7931247382933172
149	0xc004c8dc03040ee7	-2.59807588916907
150	0xc017a60881f06483	-5.912141828820611
151	0xc01b9776835fa44f	-6.897913029396547
152	0xc01f498a2d2effe2	-7.821816164010643
153	0xc01be40669ab5a5e	-6.972680712779576
154	0xc00f2e360a89cd38	-3.8975640128425333
155	0xc007fa59a517e1d2	-2.9972412965691797
156	0xc00af63f104044fb	-3.370237471543644
157	0xbfe18f794c75403c	-0.5487638943977866
158	0x401319d7ced2315a	4.775237304286145
159	0x401deac7db17ff1f	7.479278014506945
160	0x401157ffdca50440	4.335936973163427
161	0xbfd62c6f7f04da3a	-0.34646212963290035
162	0xc0112564b5d34bb6	-4.28651699163577
163	0xc00425c436ae5ae9	-2.5184406539877853
164	0xbfdae64bb92ba614	-0.4203061397844021
165	0xbfbaf43342f3b7fc	-0.10528869995661688
166	0x3fd9a22979f9afd4	0.4005225840726301
167	0x3fce6ab2cf907a1d	0.23763117918947865
168	0x3ff09f5871059221	1.0389027037537135
169	0x400d8fd33f26b055	3.6952271398240932
170	0x40210e753e9f2437	8.528238255430649
171	0x4023d350ed56ccea	9.912726799817808
172	0x402125e73b4215c9	8.574029781167058
173	0x402192c5f7e628fb	8.786666628690446
174	0x40245ce4ffa1d5fd	10.181434620385511
175	0x4022acd4823acf52	9.337558812788902
176	0x402184cc813dd906	8.759372748183988
177	0x4020046522d21765	8.008584106584474
178	0x401f27b65d2378e2	7.7887816002750885
179	0x401d7ac5dc93a2bb	7.3698954072103176
180	0x40229e29af977743	9.308911788215147
181	0x402989e109f32068	12.769295035294093
182	0x402994cf089594ae	12.790642040500042
183	0x402f911b3ccbaa59	15.783410930501462
184	0x402dd1bde748dc9f	14.909651973385108
185	0x40303c5571e91c26	16.235678786670313
186	0x4032deb875b3d238	18.870002132798817
187	0x4035e9f099e03f44	21.913827531097255
188	0x40327b069e8f21cd	18.480569753593773
189	0x4024029bf4a201f9	10.005096096779186
190	0xbfd5e662976386fd	-0.3421865919500389
191	0xbfc1537df4a2a3f9	-0.13536047406276433
192	0x3ff61df0eca90f07	1.3823098415895758
193	0x3fe4fa8533a5e2c8	0.6555810936689221
194	0x3fe9ac0dd37a0624	0.8022526865390245
195	0x3fd30fbe2876786f	0.29783586455767525
196	0x40018e4f7d97089c	2.194487553760224
197	0x401461dc10202b2d	5.095566036189479
198	0x4023c7815f8b33a5	9.889658914320373
199	0x4020abd9e83cdfe0	8.335646874838801
200	0x401be091fce28bd4	6.969306899382861
201	0x40204672da8979ca	8.137595013887125
202	0x401d2b3975fb478e	7.292211383306393
203	0x4022e15c14aa3887	9.440155645159633
204	0x40260d5be584c01f	11.02609174008836
205	0x402610d26d4bc812	11.032855430126833
206	0x40260b50abb571fb	11.022099843882634
207	0x402d2cee687bcbe4	14.58775640975177
208	0x403480bab6754818	20.50284901011773
209	0x4036757e4418a3f7	22.45895791627478
210	0x40332b675e97d4e4	19.169546043461096
211	0x4034a8a5c3891762	20.65877935502011
212	0x40346b06a52a56b0	20.418070147358492
213	0x4035556c7e352a0b	21.333686721782254
214	0x4038187f3566f39c	24.095691049227398
215	0x403a015b881af52b	26.005302912312953
216	0x4038003a5a0a0bee	24.00089037652281
217	0x402e3f7efa153dcd	15.12401563176436
218	0x4005ddbfd82acf7a	2.7332760704102244
219	0x3ff7f6806dca083e	1.497681073059098
220	0x4002be6dda3470c4	2.342982964253766
221	0x3ff3aaf6e6c09db2	1.2292393697515362
222	0x3fe678b6e3fda5f3	0.7022356465287757
223	0x3fd1d4180d6b476b	0.27857018766837055
224	0x4003a271536a2d0c	2.4543177143838246
225	0x40136b7083d0c4f9	4.854921397797846
226	0x402017fcbedc7b04	8.04685017053044
227	0x4019868e6e91c3b6	6.38140270962406
228	0x401302fa147e9aa0	4.752907104708953
229	0x400bc3123497169e	3.4702495678528313
230	0x400f1eb12e55750c	3.8899863834218475
231	0x401b2e73a5ce2408	6.795363035876115
232	0x4020e8b54ad12091	8.454508150127625
233	0x4022b7bf0e8ebe7e	9.358879523205584
234	0x40259022d8b0b0f6	10.781515857285267
235	0x4030e4c4c767dc3e	16.893627608162426
236	0x403856164db31a0e	24.336277824617405
237	0x4038732948e00c74	24.449848704051377
238	0x40338c34c35eefb2	19.547680102041063
239	0x4033bfcce28447f0	19.74922004441754
240	0x40332f3b4535899f	19.184498143740367
241	0x40351479991c1897	21.079980439528835
242	0x40383bc66a842365	24.233496339092557
243	0x403ac50a401631b7	26.76968765775538
244	0x403919894ae38986	25.09975116782291
245	0x40302ba04d5ae1d4	16.170414766967795
246	0x400649e053a8fadd	2.786072400659903
247	0x3ff1d8e50979bb2f	1.1154528017174916
248	0x400760ec8b7b1dbc	2.9223261734911983
249	0x3ffbecd5a7ed75c6	1.745320945708373
250	0x3fe2fd933e598159	0.5934540002599916
251	0x3fc51154fcf52840	0.16459143020103006
252	0x3ff3bb95aae75f29	1.233297031014397
253	0x4009461f38f592d3	3.159239239687261
254	0x401795e46e863844	5.896379210416914
255	0x4010ac602aa0d703	4.168335596148384
