Python/src/Handin 1/paramsSoftmax.npz (npz, 62916 bytes, 1 tensors)

theta f8 [784, 10]
00000000: 0000 0000 0000 0000 0000 0000 0000 0000
00000010: 0000 0000 0000 0000 0000 0000 0000 0000
00000020: 0000 0000 0000 0000 0000 0000 0000 0000
00000030: 0000 0000 0000 0000 0000 0000 0000 0000
00000040: 0000 0000 0000 0000 0000 0000 0000 0000
00000050: 0000 0000 0000 0000 0000 0000 0000 0000
00000060: 0000 0000 0000 0000 0000 0000 0000 0000
00000070: 0000 0000 0000 0000 0000 0000 0000 0000
00000080: 0000 0000 0000 0000 0000 0000 0000 0000
00000090: 0000 0000 0000 0000 0000 0000 0000 0000
000000a0: 1e19 8684 015b 2abf 30c3 aa00 5f63 53bf
000000b0: 4d69 67a7 614d 30bf 9e02 8666 3fe7 1cbf
000000c0: 62bb e7ea ae87 2c3f ea71 164e 4bcc 2abf
000000d0: c04d 2766 b092 33bf f500 bbc1 a229 643f
000000e0: baad 039f 2380 36bf 0db7 7a44 1657 17bf
000000f0: 93d4 60c0 9069 5abf 5c4c 9e23 a8e5 67bf
00000100: 8515 2a8e a3b8 27bf 7224 cf32 b924 593f
00000110: 3857 e15b 9252 7b3f 1872 37ff 7d02 5abf
00000120: 0d3d bd04 0ac2 73bf 73e4 df3e 73cd 713f
00000130: 2a4a 5888 9b9a 4cbf 7eaf 319c cc41 42bf
00000140: 4cec 4a0f ca26 68bf 1b02 a8ab 9896 73bf
00000150: e741 40db fdb9 60bf c820 4d77 180c 6c3f
00000160: 7874 1858 7dbe 873f 5c71 245f 494e 6cbf
00000170: 079b 38c6 4bd4 81bf 8270 fcdf 0962 733f
00000180: 9dd6 6a56 bf82 6a3f c634 6168 de3e 51bf
00000190: 44e2 f17c 48a6 40bf cb96 b290 3bac 80bf
000001a0: d0b6 d404 16fc 593f 1501 0fc9 759e 7c3f
000001b0: 40a5 4a3f ebd5 7e3f 7412 35d3 0232 83bf
000001c0: e93f 1865 8ef5 5abf d084 0596 08d2 6d3f
000001d0: 227e 14f0 b068 5a3f bc5c 8c7f b69f 5bbf
000001e0: 9391 580e 7865 76bf 6482 3af4 08ee 8cbf
000001f0: 497f e4a8 4527 983f e343 4cca 4474 883f
00000200: a436 45d2 51f1 68bf c930 60f2 d7ee 8fbf
00000210: ac19 9793 bc0d 8a3f b75e 0025 61d4 4fbf
00000220: 473d e723 3035 83bf fc11 661c 5dbb 353f
00000230: bf26 a7ac ab88 84bf 2731 86ad 76f9 96bf
00000240: bb08 f3ab a1d6 a43f 55a5 d1a2 4d32 9e3f
00000250: 25a6 cfdd 9a80 90bf 3df1 3755 087d 8dbf
00000260: 00e3 28bc c444 9c3f ae52 6103 18ee 8ebf
00000270: 1acd 0de1 56f9 99bf 50ff 8ce0 e223 773f
00000280: 72a7 133a a5e0 583f 9df1 bd4e 1237 a4bf
00000290: 552e e0f3 052c a73f d55f 27da a5c0 a53f
000002a0: 391b 8587 cf5e 9fbf ac3e d301 5cf3 92bf
000002b0: 69fa 3a31 c09a a13f 8a38 fb9e b823 9cbf
000002c0: 87e7 cbe6 ce71 9fbf 9711 755a f5b8 973f
000002d0: bd72 6d87 3224 8f3f dfda 02d5 2075 a6bf
000002e0: a0c6 7cf0 6c68 a33f 75f8 7760 197d aa3f
000002f0: 7c94 f868 ef0b a8bf 7a45 f9cd 9e14 9fbf
00000300: 8381 7f29 d38e 993f c49d 040e 4a9a a1bf
00000310: 5d96 212f 6723 8fbf 0139 35f7 86f8 a43f
00000320: 9570 2d3c ea3f a43f 1a85 26cc 281d a7bf
00000330: a266 f18f 183f b43f f367 2c8a dab6 a53f
00000340: 30ac 96c6 f136 b1bf 6adb 5813 51ba 9ebf
00000350: 8669 1ea3 e298 6dbf c6ee 7529 4b35 a9bf
00000360: eaf6 3b07 dcdd 81bf 6678 3a52 8ff9 a53f
00000370: 6c31 26f0 e681 b43f 77f2 365e 03be b3bf
00000380: e143 cb5e 25f2 c23f ab77 706c 3548 7e3f
00000390: 1a99 e17c a150 babf 23fb 77ec efd2 abbf
000003a0: ff1e 1f2f 25b6 a2bf 6c13 3997 215e a5bf
000003b0: 9c80 a384 167b 7e3f b6a9 b2c7 d9cf b13f
000003c0: b24e ccec a6b8 b23f 115e c489 9305 bdbf
000003d0: f6a1 ab70 b157 cc3f 9c3b 1b47 c36b 89bf
000003e0: 2a7f a111 ad1f b3bf b4b7 9f79 d18f b0bf
000003f0: ee34 c692 623b 9dbf 0b0e aa16 d868 abbf
00000400: db9a 71b5 710e 9cbf db64 28cd 6181 b43f
00000410: 01df 598f fd98 a63f 6740 d0ae d01e bdbf
00000420: 35f9 d425 b875 cb3f f639 530a 2c22 963f
00000430: 801c 68e7 d906 71bf d393 5c6e ab68 aabf
00000440: 3582 937b c789 94bf 6835 c4da e915 b3bf
00000450: 9ae2 9cb7 335e a0bf 4d8b 0310 3e2a 903f
00000460: f65d 07ff 09ce 6bbf 8f50 954b ad6c 85bf
00000470: 1977 4303 d153 bf3f fa10 fd7d 67cf b03f
00000480: 52cb fdc4 e21d 843f b1ae e974 1efa aabf
00000490: d119 6132 cf6b 923f 77cf ccac 753b b8bf
000004a0: d1e8 5bca 7505 4b3f f467 c162 d166 acbf
000004b0: 8184 f0ca bc00 8ebf 2ca2 b3be 4c80 b73f
000004c0: 10ce fc01 536d 943f 7904 3af9 93ba af3f
000004d0: 6288 f504 4f01 823f c8d3 408d b50b b7bf
000004e0: 056d 8935 c0ea bb3f 9931 d9e9 95e1 babf
000004f0: fa68 3bf0 7feb 64bf a904 fe81 164f b4bf
00000500: 4c5b d798 8c3e 933f 2fdf 74eb ede4 bd3f
00000510: 5a49 c8bd 3453 a7bf ccc8 13a7 9b3a 90bf
00000520: 0322 64a3 97c9 7b3f fcb8 1269 753c b0bf
00000530: e087 f7db 0c4b c83f b4fb 5011 0808 babf
00000540: b1fe 8ede 6015 98bf b07c 1f49 2d05 b5bf
00000550: f98a d3fb dc78 a93f 9900 9331 1b73 b13f
00000560: 6fdf 4dbb 75ae a1bf dcf0 21bd dfc4 b3bf
00000570: ca7e 4575 d1bf 873f 9444 bf53 7305 72bf
00000580: 2e63 0175 d20c ca3f 7ec4 5a3f 4149 b7bf
00000590: e0fb 67da f8c0 abbf f8a4 944b f95a b2bf
000005a0: c39e 3ed5 8a3f a33f 4121 5f15 debd 6a3f
000005b0: af6d dfaa 7f3d 93bf 627b 3bb5 55f6 b5bf
000005c0: bbe4 4a2f 8deb 8e3f 29e6 0452 cbb9 ab3f
000005d0: 5df0 205e 1384 c73f 3e51 b582 2228 b1bf
000005e0: bf6c 035a c368 a6bf 7e9a cd96 f815 b4bf
000005f0: f51c 4e7d f0e9 53bf 1702 0186 4b72 b1bf
00000600: a0eb 7397 675f 883f 2c57 5b9a 2ea7 aebf
00000610: 3ea8 5e7d 1830 953f 4296 02f2 8302 ba3f
00000620: 1dee 8597 a892 c23f f63e e3d6 ee2a a6bf
00000630: 1c19 be89 5910 a7bf b70f c0db 3299 afbf
00000640: bb4f 48c9 b299 9dbf cf37 95d7 b884 b4bf
00000650: 43e0 d3ee 28d4 753f eb89 8ca1 90bf afbf
00000660: a2b2 2418 538d 60bf 75ab 3992 3acd c33f
00000670: 7aaf aadc ace7 b43f 39be b469 b2eb 9dbf
00000680: 0f8b c26b 41fa 67bf 6c94 a2ed 9aaa a2bf
00000690: e135 73b7 7b2b a1bf e964 5294 d313 abbf
000006a0: 8e7b 8050 daa2 493f 6cb5 4733 9d52 a8bf
000006b0: eb67 7ee8 a67d 3e3f fc00 8017 3327 c33f
000006c0: 55dd 2026 23ff 973f 1dc7 a657 bf21 94bf
000006d0: bca2 43d1 3b95 733f f563 d6ee 7f1f 9abf
000006e0: 12ee 3ed7 cf01 a4bf 5c26 581c 171b 97bf
000006f0: 9c6d 400f e302 91bf d259 d39f aeb0 9bbf
00000700: ec37 bb90 8582 81bf f49c f75b 11ee c03f
00000710: 4908 b821 6dfb 333f d8a9 5176 dfcf 80bf
00000720: c3c7 fc02 a43e 673f 274b 662e a459 8bbf
00000730: 9992 a1f2 8bdf a0bf 95d0 40b9 aa2b 90bf
00000740: 4a00 f876 5d66 8abf 353a d878 2693 89bf
00000750: d459 eb90 2baf 84bf 4826 be0e 4800 ae3f
00000760: 9e83 a8f1 f75a 9f3f b523 35bc f364 68bf
00000770: 7423 9149 b8cd 733f 2bd2 822c f50c 7cbf
00000780: 8eba 38d1 65d1 93bf 9730 df5a 49af 84bf
00000790: b426 1e8b 1828 80bf c480 bd73 778e 7ebf
000007a0: 68be 9632 9e7b 7fbf afbd db97 6299 8e3f
000007b0: 1779 6672 326c a43f d168 8360 69b6 62bf
000007c0: 37e5 b6bb 6fcf 703f 229d 2e17 230a 71bf
000007d0: d02c c193 0e36 8fbf 1456 0ec3 f725 7ebf
000007e0: b9ef 519e 4395 70bf 938f 7b35 30a0 72bf
000007f0: ebce 18b0 fc56 7dbf c418 926f e76d 893f
0.0 0.0 0.0 0.0 0.0 0.0 0.0 0.0
0.0 0.0 0.0 0.0 0.0 0.0 0.0 0.0
0.0 0.0 0.0 0.0 -0.00020107644582995852 -0.0011833598861523235 -0.00024875291947314555 -0.00011025738206705624
0.00021766672348585552 -0.00020445269823889052 -0.0002986603414260845 0.002461259731575289 -0.00034333104760150455 -8.903573427218262e-05 -0.001612082823624382 -0.0029171260802712106
-0.00018097874188442386 0.0015346344546165705 0.006670543398362309 -0.0015875082434525564 -0.00482372201425042 0.004346323183193157 -0.000872922843600248 -0.0005571602890887953
-0.0029481836776006683 -0.00478229176451397 -0.002041812718751357 0.003423736367413086 0.011593798876726277 -0.003455298713687478 -0.008705703722694759 0.004732168745047118
0.0032361733495587922 -0.0010525867414970399 -0.00050810374695149 -0.008141007760353777 0.0015859808948549999 0.00698705682674496 0.007528227743628435 -0.009372732229743642
-0.001645459229965946 0.003640190858434346 0.0016118743809058274 -0.0016860277375537044 -0.005467862099554205 -0.014125890687240523 0.023587311204323034 0.01194051496853094
-0.003044757659302304 -0.015592276653500286 0.012721513036819974 -0.0009713625277098713 -0.009378791900330653 0.0003316023179638359 -0.010026303488206321 -0.022436003056598566
0.040700008621131066 0.029488766730002187 -0.01611558893993083 -0.014398636913931834 0.02760608099399331 -0.015102565386919533 -0.025365216718865026 0.005649458159325452
0.0015184033912256337 -0.03948266230779327 0.04525774576185585 0.04248541152963951 -0.030635111471634977 -0.01850646744861588 0.03438377953488187 -0.027480015471887977
-0.03070758136434606 0.023166497846675318 0.015205759771271027 -0.04386236763223449 0.03790607867848661 0.05173568060489312 -0.04696605831512898 -0.030352097818029368
0.024958896072236236 -0.03438025876158293 -0.015204244733648392 0.04095861213373731 0.0395501326044904 -0.045144343300544246 0.079087767736747 0.042410687796475964
-0.06724463556626925 -0.03000761681161227 -0.003612940455196059 -0.04923472291099311 -0.008723944636126874 0.0429196155430283 0.0801071487714517 -0.07711812067186395
0.14801470879186154 0.007393082319166948 -0.10279282854898888 -0.054343698135190154 -0.0365459079762882 -0.04173378916724499 0.007441604577451379 0.06957780003964484
0.07313006669238112 -0.11336633790448782 0.22142618180738766 -0.012412572486395317 -0.07470208816948501 -0.06469449252446574 -0.028546848495854364 -0.05353427197135482
-0.027398850154351045 0.08009921320662576 0.04413597464457376 -0.11375145213992398 0.21453000876676645 0.021614730959123883 -0.004156924426303665 -0.05157981607616304
-0.02005683604955007 -0.07455312338807618 -0.03196870437972628 0.015786142089278688 -0.003394145511474762 -0.010461191052549416 0.12237268762279675 0.0656647379483423
0.009822627674770299 -0.05268950631292791 0.017989385080250223 -0.09465728253127091 0.0008246255062822843 -0.055471938424218964 -0.014649844115469659 0.09180144935420093
0.019948288914021062 0.06197035233800192 0.008791558588829133 -0.09002241800847266 0.10905076319743408 -0.10500466307821056 -0.0025537012860300497 -0.0793317859043038
0.018793293789566776 0.11677443502855732 -0.045556686560433504 -0.015848571846569112 0.0067840503090868 -0.0634225255514344 0.18979035130092736 -0.10168505118143295
-0.02351905210866673 -0.0821102431796017 0.04975023817111963 0.06816263160999582 -0.034534148325234486 -0.07722280852789559 0.011596332923260805 -0.004399729248647639
0.20351629937319998 -0.09096153065435605 -0.054206635151778704 -0.07170065016966365 0.037594164400898154 0.003264364010622384 -0.018789286426778847 -0.08579002070062594
0.015097716336969538 0.05415187240801018 0.18371812912107802 -0.06701865855331321 -0.04376802896305198 -0.07846025163380863 -0.0012154434709559768 -0.06815025350170632
0.011900719937775694 -0.059869247763045 0.02069128289409882 0.10160088213395915 0.1451006641253664 -0.04329630253925913 -0.045046613754538195 -0.06171568806169552
-0.028906625304514693 -0.08015017760519004 0.005329284567089645 -0.06200839969666901 -0.0020205138145200233 0.15470058574586756 0.08166008365031799 -0.02921942491701499
-0.002926948333042196 -0.0364578642923242 -0.033534876006892984 -0.05288563905305372 0.000782353018624936 -0.04750529528596811 0.00046525311381062526 0.14963377616368934
0.023434209062739814 -0.019659986233541028 0.004780992185467067 -0.025510786964876037 -0.03907632353317693 -0.022564278702736792 -0.016612575345886435 -0.027041176323871437
-0.008549731711720875 0.1322652529772551 0.0003049031672334208 -0.008208986090001355 0.0028374865868494316 -0.01335457102394384 -0.032955525749263255 -0.01579157596297927
-0.012890558426988847 -0.012487698138127981 -0.01009973560341574 0.05859589748349642 0.030620454907083088 -0.002977825207981922 0.004834861633818178 -0.006848294935640579
-0.019353476424095954 -0.010099957547844247 -0.007888976808107052 -0.007460085496717454 -0.007686250647949679 0.014940996417378864 0.0398879780434404 -0.00228424626776045
0.004104076822323769 -0.004160058090668247 -0.01523982418452477 -0.007360427684849142 -0.00404859937145468 -0.004547298732834454 -0.007163035451913417 0.012416656582228909
